money_detection_model_2019-04-07/weights.npy (npy, 4800 bytes, 1 tensors)

array f8 [584]
00000000: 9ed2 bd27 2396 03c0 a909 e526 6768 e13f
00000010: f6c0 a552 66d1 fe3f 5b93 91e5 1c03 fbbf
00000020: 9a15 3e66 5200 1240 590e 5f02 0744 fcbf
00000030: b240 8262 3a71 d53f 5846 4407 2efc f13f
00000040: 1635 71cd 1c1f 0040 0857 9e88 a8a6 d43f
00000050: fd6f 8463 a502 f9bf a430 3755 825b e33f
00000060: eea8 7bae 2eea d33f 68e8 c8ea 6253 03c0
00000070: 0e0c 2b7f 3140 d3bf e94e 7f83 9e66 bd3f
00000080: 508f cb04 3f36 e9bf 196c e785 2d0e d43f
00000090: 6683 d148 7a48 96bf 56f8 e002 55d5 f13f
000000a0: 8104 5f3b 61ae e53f ef81 fb03 b9aa a53f
000000b0: 3d5a d559 c9f5 d63f f478 4af7 0406 713f
000000c0: 96fc ff6f 1a76 dabf 4985 4b93 c46b f03f
000000d0: 6d2c d7a8 67e6 d03f 84ae ec9b 7a4f e8bf
000000e0: 5517 d9b6 daf2 e63f ee9e f81f 0285 c4bf
000000f0: 65da 543e 8554 e0bf 978b bab0 c270 ebbf
00000100: 6d39 664a aa8e f63f f38c 9cda ffdb 0340
00000110: a34f f920 1e27 edbf 1a63 f6a7 c53a f73f
00000120: 0a1b d382 3fb4 f63f 161d 6da0 0f4e e33f
00000130: d301 1a8e 8e00 e33f 1b56 e387 0742 f23f
00000140: 4f15 0892 ae78 c2bf 33f0 0414 ed23 e0bf
00000150: f153 ed95 46cc e3bf 5d75 796d 7dea f53f
00000160: e9dc 2804 2d94 0440 5563 645b d56d db3f
00000170: 5e26 4c25 f1e6 f73f b7b4 45f0 e274 e93f
00000180: 53fa ae87 63db d23f 3ebc 6c09 1afa e73f
00000190: 70cf 95c0 3892 efbf 4ec4 f4c5 0a45 eb3f
000001a0: db8c 72ba 5582 de3f aac5 c455 ebb5 f83f
000001b0: aa81 8d7e 098b e4bf 7a59 0592 694b 0240
000001c0: fe02 fe3b 3217 fa3f cd41 3451 d4d0 eb3f
000001d0: 64c3 4c22 2ed3 ee3f b219 f755 a7a9 0140
000001e0: ee25 54a2 6fa0 e63f 9a37 5522 ad99 0040
000001f0: 6c95 aedc 9054 e03f af12 05ce 8948 f03f
00000200: bc70 58be 6e0e f43f 7fdc a123 ed75 2540
00000210: 94a7 1d9a 5970 e13f f063 1848 fdc5 ecbf
00000220: 74ab db41 3fa9 d0bf 8364 e1b6 7995 f33f
00000230: 9e44 611f 7ddd da3f 9c0e 8526 0bdc f43f
00000240: 8057 a13e 7f41 d33f bcd8 2681 3cc3 fd3f
00000250: 4f65 1bb6 5fbe f03f bd0f e956 fbea f23f
00000260: 19af a75b f0ff 0ac0 c9b0 f535 81fa f23f
00000270: 46ec b25f 3100 dc3f f0fa 981f 151f f53f
00000280: f540 5bb2 206e f93f 18fc f6d3 cde1 0140
00000290: 5004 ad3d 7526 0340 543b 8fba 90fb dcbf
000002a0: 4b1a e136 918b ca3f b23c ef3d d87f fe3f
000002b0: 0dd5 51ff e73e cdbf 708c 0459 36a2 0440
000002c0: 8b57 f5bd 756a f33f ec02 8b4c 5fca c93f
000002d0: 6a3a 5288 a8db f23f c641 a900 eb94 0940
000002e0: 4804 b98b 41d7 cf3f f247 4e2e 390f f73f
000002f0: d9e7 dd07 032d fcbf ee37 231e edfa 0240
00000300: 2515 715f 0386 2740 63a1 057f f3ba 2340
00000310: d7bf 1ae9 1efb 2240 27af e56e ad13 2140
00000320: 9e50 cfdf f292 2140 f713 70a9 d280 1a40
00000330: fd2d 01fb 5071 2240 2b05 2f57 b7cb 1040
00000340: f92f 57e3 b03e de3f 710b 1fce 32aa 0540
00000350: 7cc4 0300 2f0f ff3f bb84 9c0b cf9b e8bf
00000360: 8da9 d4a3 1b6a ee3f cf21 76cd 703d fb3f
00000370: edc2 8be9 d3c1 0140 134b b353 f43e c9bf
00000380: 5d7c 0660 c507 f53f 22e3 14e8 3816 f4bf
00000390: 16c0 a4d5 c04f f93f 3458 66d2 543f f23f
000003a0: d829 3b42 f207 babf c6d8 3b39 c6f8 cf3f
000003b0: 4f7a eb7b 04ea e13f ab07 20a0 ec77 ff3f
000003c0: b5aa ecb1 a7d1 c33f 97fc 6a01 d7e1 f0bf
000003d0: 8412 dcc1 9466 0040 6b69 06b1 9be2 0040
000003e0: 5ff9 4a8d 5155 e4bf 9d49 06c6 178b e2bf
000003f0: aad2 ea52 df38 d63f 8c52 157b c66d e63f
00000400: ebe7 ff14 f7ba e23f 9d64 85bb 82bc cb3f
00000410: 0c66 a623 5e9b f73f fa85 3474 f6d7 fa3f
00000420: 4bf9 6b46 a80f b3bf e7e6 44a1 5d92 d8bf
00000430: 80cc 624b 8f65 c73f 2d7a dcab 35fd 07c0
00000440: 032b f9ed b3ce f23f 9ecb f03c 235b e13f
00000450: 7efc 0f57 29bc eb3f acf6 ccfd 8eb9 e73f
00000460: 9b3b bf03 1dfa d73f cfbf 938b 1243 f63f
00000470: 6d07 7354 7810 0140 7d59 ffe3 f054 f4bf
00000480: 9e58 ce31 db6f d43f 8780 14da d4c7 f73f
00000490: 09b0 5004 76ca ea3f 44ed 5c05 7bd1 fd3f
000004a0: b712 0bbb 0a74 be3f 4726 6c6e 32e4 fc3f
000004b0: 0827 cec7 41fb fd3f f1c7 ccc7 71a5 e03f
000004c0: ca30 be51 fe9e b03f 8345 de7f bd3a b23f
000004d0: c0da 03a3 e0d2 f53f 3f04 8155 bf14 e83f
000004e0: dbba 523f aa3c ff3f 3749 2557 fb9f f13f
000004f0: fefd aa84 8cf8 ccbf e77e b362 5d20 f73f
00000500: c680 300e e03b 0240 6125 faf8 5480 c4bf
00000510: acf8 f5d9 7e9f 1ec0 e9b8 6f8f cbe4 ec3f
00000520: 64c1 1d4d 9ceb 0340 b649 55ec fd59 e53f
00000530: 9273 250e fb0e 04c0 1e96 ce5c d302 1ec0
00000540: e7b1 98ca 13b0 ef3f 50fd 47d6 a263 ee3f
00000550: 4532 5bc3 2da8 ac3f 023b 8dab 3256 f33f
00000560: 2a2c f257 32c7 ff3f b55b 456f 4da2 16c0
00000570: c739 0ba6 07ac f53f 9b58 b94b 581a ef3f
00000580: 9280 d84e 63ba ea3f 068b d116 13d0 f83f
00000590: cea9 23e0 0535 f03f 07cd a15b 86d4 ad3f
000005a0: d87a 53f8 9cf0 f63f fa22 43b4 963c e0bf
000005b0: 749a 7116 781c f33f a625 f0a4 ff6b d63f
000005c0: 0c69 e9d3 47f0 0c40 901b a872 0230 fa3f
000005d0: 8d10 31c8 0373 fa3f 6d8e d23e 3a92 e63f
000005e0: 5ced cc71 59bf ea3f ca10 d933 7138 e1bf
000005f0: 66a3 427b 776f e33f 354b 9b11 2a10 24c0
00000600: 2f01 cbd5 7256 ec3f 9670 0af6 b293 09c0
00000610: 10fc eb6a f5b4 2240 e18e 1844 8ccd f8bf
00000620: a8ed 3153 39bb 1740 de84 2de8 77f3 d7bf
00000630: cd71 9faa cfa7 ec3f b321 6c8a 1ea3 1940
00000640: 259c cd35 0016 0540 0cce a8b5 1eae c73f
00000650: ab18 3886 a2a9 c9bf e0e2 b3ec d245 0840
00000660: 62c5 cca4 872d f8bf be05 333e 2c82 d2bf
00000670: 18ee 4033 115b e23f a50d 14a0 56b8 eabf
00000680: 198e 22f5 6229 b7bf 5462 f241 b9d2 b6bf
00000690: f304 5767 31b4 ee3f 2676 163d 98e2 d93f
000006a0: 35c9 b045 0521 e63f 628f 1531 f632 a73f
000006b0: 6176 1b8f e83d d73f 29ea 4a08 6cc0 04c0
000006c0: 9e8b 61e4 a859 b5bf 13b7 2185 2b31 e1bf
000006d0: cbe6 e012 ac57 b5bf 4283 c015 b996 f33f
000006e0: b1eb 4d23 2038 efbf 1b32 8a9b 3804 e73f
000006f0: e1a7 da9d 2a3f debf f34f d4dd 4b4a f4bf
00000700: 6ad9 1115 2695 e13f 3a32 9d95 c0b5 e93f
00000710: 0566 6393 180f ddbf 56ce 30f8 8c65 e8bf
00000720: 3af0 6f7c a868 d6bf 9ff5 2a6a 8fb5 d03f
00000730: ce74 23a4 fc11 c53f 66f7 b527 23f6 ddbf
00000740: fcce 84be 3bbc f33f 3cdf a707 831e b3bf
00000750: be1c 4811 0a17 f33f e73f 8108 52d5 0140
00000760: 01c0 e328 7424 fdbf 6922 dff0 b819 dd3f
00000770: a678 9ded 3d44 b5bf e60e 2e17 c439 dcbf
00000780: 5826 4e54 767b f23f ee64 bacf 6014 dd3f
00000790: f151 a7a3 e449 d63f 7c3a 293a 39b3 d4bf
000007a0: 1083 fc3b fff9 e2bf dafc 01b9 29b4 f03f
000007b0: 4116 03b2 9082 f13f 9439 2994 218e ecbf
000007c0: 5020 d5d1 ce9a f2bf 9288 1246 1ab3 0640
000007d0: 5ed1 4b64 31de 0740 19a8 103a a1da debf
000007e0: 3884 d499 67c9 0440 0a73 9833 794b 0140
000007f0: 2a49 f655 c7be 0240 e3d7 33a6 b8fc d7bf
-2.44830924079936 0.5439944991742794 1.9261229732911125 -1.6882599799657416 4.50031432870801 -1.766608247054043 0.3350358926773068 1.1240673335891156
2.015191655175509 0.32267201749469665 -1.5631460082431652 0.6049205459944642 0.3111683563171387 -2.415716013199063 -0.30079305094494735 0.11484709463485
-0.78787184654764 0.31336534573137126 -0.02176085538338004 1.1145830261662204 0.6775365981667535 0.04231813596357258 0.3587516190795304 0.004156131170615963
-0.4134584516286365 1.0263105157576595 0.26406280029613677 -0.7597020192528849 0.7171453067064514 -0.16030909119694264 -0.5103174416934279 -0.8575147105915332
1.4098303705428308 2.482421596434159 -0.9110251087208677 1.4518486557992163 1.4190058813416635 0.603278935749503 0.5938179755613028 1.1411204631925844
-0.1443079197926331 -0.5043855086328278 -0.6186860016119892 1.3697485233636464 2.5723514866800667 0.4285787003041624 1.4938823182041214 0.795518368989767
0.29464042902319426 0.7492799934460732 -0.9865993272237414 0.8521779886560894 0.47670500953445377 1.5444138861024421 -0.6419723006948079 2.286822453296904
1.6306631415793045 0.8692418657320161 0.9632788343352385 2.2078386989625978 0.7070844812853332 2.0750372583633636 0.5103229818529775 1.0177095458649708
1.2535235820169381 10.730324853428327 0.5449646005701987 -0.8991686256514395 -0.2603300231118546 1.2239930290000138 0.41976860107849656 1.303721571414747
0.30087262264475356 1.8601651234617256 1.0464779962115534 1.1823686022698745 -3.3749701653049553 1.1861583812524705 0.43751177163693844 1.320088504245799
1.5893866507577148 2.2352558669804345 2.3937783068109084 -0.4528543302412136 0.20738425426152882 1.9062120837514098 -0.22848224608211645 2.579205222560226
1.2134911937950814 0.20148841130687545 1.1786275219962143 3.197713856854736 0.2487565929641582 1.441216641313528 -1.7609892184541336 2.372522578668387
11.761744482568767 9.865138978421504 9.49047020389109 8.538432565248128 8.787009233529087 6.6258036112458205 9.221320957082748 4.198941576237568
0.4725763530848322 2.708104715654763 1.9412069321226957 -0.7690196253571665 0.9504526328867527 1.7025001550519965 2.2196424718643954 -0.19723371588641977
1.3143972159375814 -1.2554253640830173 1.5819710107280165 1.14046175181785 -0.10168375126810447 0.24977948946588507 0.5598165912923124 1.9667783980262168
0.15483566463202228 -1.0551366858851787 2.050088419464659 2.110648520477459 -0.6354148635507889 -0.5794791095416262 0.3472212133158715 0.7009003070803188
0.5853228960179399 0.21669038921644282 1.4754315750673213 1.6777252711548258 -0.07445766181260642 -0.38393345593395484 0.18278685742334133 -2.9986375261935536
1.1754645629723093 0.542375201248763 0.8667189312399299 0.7414011914294938 0.37464070669096267 1.3913751079780814 2.1330420110324924 -1.2707375436926605
0.31932716239806236 1.4862869757417074 0.8372144779473284 1.8636427125446327 0.11895815912709905 1.8057121575715358 1.873842030038249 0.5201958563177397
0.06492604728390741 0.07120880481513407 1.363983761575284 0.7525326414107737 1.9523107980309564 1.1015580562712566 -0.22633511045385996 1.4454015594018814
2.279235945563502 -0.16016637951933446 -7.655757337224866 0.9029290963642583 2.4900442146974218 0.667235337818332 -2.507314787404945 -7.5027594090547876
0.9902438122713279 0.9496626076869834 0.05597060212821651 1.2085444165456356 1.9861319957151502 -5.658498514755526 1.3544994817817597 0.9719659308418785
0.8352524318652448 1.5507994548176511 1.0129450564805782 0.05826206081919776 1.4337434482801452 -0.5073960800883406 1.1944504620275014 0.35034171206697307
3.6173245006185706 1.6367210844780153 1.6530797786699936 0.7053500391961741 0.8358580801645235 -0.5381399166731395 0.6073567778995368 -10.031570959288368
0.885552804531505 -3.1971186849533053 9.353434888178555 -1.5501825962064049 5.932835864946732 -0.3742351310120976 0.8954847652890351 6.409296191072303
2.6357425883648085 0.1850012194641838 -0.2004893451086834 3.03409371303529 -1.5111156880851344 -0.2891951186575986 0.5736166001365204 -0.8350022436647363
-0.09047525868168584 -0.08915288791684733 0.9594962137563513 0.404455241828915 0.6915308343070935 0.045310681812025036 0.3631535909206374 -2.593956055437293
-0.08339934898098852 -0.5372521972874175 -0.08336902104283721 1.2242976045310603 -0.9756012620485902 0.7192652738463637 -0.47260537543718156 -1.268138758202437
0.5494566356199304 0.8034365579747551 -0.4540463866556766 -0.7623963210557558 -0.3501378264625178 0.26108155601454003 0.1646114160020375 -0.46814803007133887
1.2334554140224432 -0.07468432366283378 1.1931248354974708 2.2291603722041944 -1.821399841046514 0.45469497225398087 -0.08307253886366314 -0.44102575553573187
1.15514214450595 0.45436878477046505 0.34826007825657174 -0.32343893699445636 -0.5930172130211719 1.0439851023546027 1.0943762734981564 -0.8923499959726535
-1.1627948948462468 2.83745245689449 2.983492644847657 -0.48209410353104115 2.5983421342830546 2.1618522673510414 2.3431536403451405 -0.3747998831817069
